model/vae/decoder.pth (torch, 1447 bytes, 2 tensors)

fc1.weight f4 [17, 4]
0.013834117 0.34614673 0.03198423 -0.32814795 -0.264069 0.47841847 0.35865545 0.10668355
0.019905407 -0.28896773 0.46814868 0.2503093 0.41582945 -0.0716441 -0.09998029 -0.06703457
-0.22017513 -0.36116397 -0.34031087 -0.30119842 -0.38361493 -0.47214046 -0.30336767 0.068631455
0.20361082 -0.19126636 -0.4268269 0.44882122 -0.036683798 -0.28361008 0.2591654 0.15940517
0.17063266 -0.2602739 0.52987957 -0.3913692 -0.17996356 0.14313985 0.28421962 0.13082752
-0.34794876 -0.3018072 -0.07495098 -0.29156703 0.012419946 -0.14555407 -0.32150862 -0.47142512
-0.3159652 -0.11871385 -0.17098875 0.34000674 -0.32068425 0.5040241 0.37321138 0.15871255
-0.35030106 0.034235492 -0.27092963 0.17778666 -0.079720646 -0.25468025 -0.49932185 0.3555224
0.17433755 0.18795577 0.37543732 -0.2975614
00000000: 7ea8 623c 253a b13e e501 033d 0203 a8be
00000010: 0d34 87be 44f3 f43e b0a1 b73e e87c da3d
00000020: aa10 a33c 94f3 93be 2fb1 ef3e 8a28 803e
00000030: 99e7 d43e 24ba 92bd 77c2 ccbd 6c49 89bd
00000040: 9775 61be 7cea b8be 3a3d aebe ae36 9abe
00000050: 2d69 c4be 65bc f1be 0253 9bbe a68e 8c3d
00000060: 5b7f 503e 54db 43be 0e89 dabe e5cb e53e
00000070: c041 16bd 5735 91be 54b1 843e 1c3b 233e
00000080: 54ba 2e3e 9f42 85be 30a6 073f 8b61 c8be
00000090: 5e48 38be 4193 123e 3c85 913e a6f7 053e
000000a0: 5726 b2be 7986 9abe e67f 99bd 4648 95be
000000b0: 077d 4b3c 200c 15be c79c a4be a25e f1be
000000c0: 31c6 a1be 3f20 f3bd ad17 2fbe 5d15 ae3e
000000d0: ba30 a4be b907 013f 9015 bf3e 8b85 223e
000000e0: a95a b3be 843a 0c3d 4ab7 8abe b50d 363e
000000f0: 9444 a3bd 7365 82be 1da7 ffbe 0807 b63e
00000100: 8b85 323e 7a77 403e 5239 c03e f859 98be

fc1.bias f4 [17]
-0.28984278 0.045814935 -0.2763858 -0.34090015 -0.36756513 -0.50217223 -0.41413376 0.02399276
0.29360828 0.33595148 -0.21021993 0.09757656 0.05845463 -0.2505367 0.2395363 0.17665349
0.2691268
00000000: 4666 94be 71a8 3b3d 7182 8dbe 778a aebe
00000010: 7f31 bcbe 5c8e 00bf 5709 d4be 778c c43c
00000020: d353 963e d501 ac3e e543 57be 38d6 c73d
00000030: 1f6e 6f3d 5946 80be 0149 753e a7e4 343e
00000040: fdca 893e
