model/vae/encoder.pth (torch, 2143 bytes, 4 tensors)

fc1_1.weight f4 [4, 17]
00000000: e43c 05be e616 153e bc52 b03d 808e 5b3e
00000010: 54b1 c13d 4f9e 6abe 87a1 24be 76ba cdbd
00000020: 00da 6bbd 94a6 aebd e972 05be 0f0d bb3d
00000030: 931f e9bd 141a d2bd c3ca 47be 26ca e5bd
00000040: 4e73 a9bd 120d 13be a9d6 11be 19a9 203c
00000050: e698 8e3d a0c5 dc3b c0f9 c13c dc29 d13d
00000060: 0064 203a f4d6 5ebd e056 af3d 8804 02bd
00000070: 0a3b 1bbe a83f babd 5401 4fbe 2024 1b3c
00000080: d0c7 e13d e067 503d d126 d7bd c198 82be
00000090: 3ded 123d ea56 633e d5ec 643c 60b5 eb3d
000000a0: d7a9 0c3e 9d3e e23d 7c7b 433e c7b8 23be
000000b0: 4ef5 ee3d 9a02 163e cccd 1abe 0083 c83b
000000c0: b0f5 003d b4bf 3abe 606e f53d 9bda d73d
000000d0: 4133 333e 0f77 1b3e 9b69 19be 939d e7bd
000000e0: 888b 33be ab8f a23d 8d32 b53d 3292 003e
000000f0: d7ce 5abd 70a3 8dbd 5ebb 66be 9d34 1ebe
00000100: b7ab ae3d 5b02 2bbe 4ba8 3c3e 2557 bd3d
-0.13011509 0.14559516 0.0860953 0.21441078 0.09457651 -0.22911952 -0.16077243 -0.1004533
-0.057580948 -0.08527866 -0.13032116 0.0913335 -0.113829754 -0.1025888 -0.19510941 -0.112201974
-0.08273946 -0.14360455 -0.14242043 0.009805941 0.06962757 0.006737426 0.02367866 0.10213062
0.0006118417 -0.054404214 0.08561492 -0.031742603 -0.1515924 -0.09094173 -0.2021535 0.009469062
0.11024439 0.050880313 -0.105054505 -0.25507167 0.03587078 0.22201124 0.013972481 0.11509204
0.13736664 0.11047099 0.19090074 -0.15988456 0.11667882 0.1464943 -0.15117568 0.006119132
0.031484306 -0.18237191 0.11983943 0.105397426 0.1750002 0.15182136 -0.14981692 -0.11309352
-0.17533696 0.07937559 0.088475324 0.12555769 -0.053419914 -0.06915939 -0.22532412 -0.15449758
0.08528846 -0.16700117 0.18423574 0.09245137

fc1_1.bias f4 [4]
00000000: c364 6ebe e712 0dbe efa0 3dbd 5583 a43d
-0.23280625 -0.13776742 -0.046296056 0.08032862

fc1_2.weight f4 [4, 17]
00000000: 490c ec3d b2a0 0e3e 4ae2 31be f75e ab3d
00000010: 8719 82be 1a91 1bbc fcc2 cfb9 775f ebbc
00000020: b732 8dbd 4286 47be fc28 c1bc b167 1abd
00000030: d335 a2bd 5840 703d 2ccd 74be 5435 1cbe
00000040: 9002 1c3d 75a5 32be ee6a fabd 0cd4 763d
00000050: 159d 17be d4a7 69bd 381d 4d3e 56a7 f4bd
00000060: b4c9 debd 88c3 893d eba9 c93d f401 35bd
00000070: 624d 43be f878 c03d f8e4 b43b d84a 5fbd
00000080: 3d03 053e b2eb 433e 75d3 61be 1f3c 2bbd
00000090: 1581 26be 00b7 e8bc 7448 1dbe 8a50 46bd
000000a0: eea0 4d3e 0a4b 5fbe 915b 68be 5456 a6bd
000000b0: 50aa 073e b43f 823d b038 953d c00c d63b
000000c0: 1ba5 f9bd 9a9a dfbd fc98 f2bb 51a3 0a3e
000000d0: a5e4 43be 2c0d e4bd 8326 3c3e cfb2 b0bd
000000e0: fd77 7dbd 144a 92bd 925f 413e beba 1fbe
000000f0: a246 8abd 9413 2e3e 8ce3 fb3d 2e23 35be
00000100: fcb6 473e d4eb 11bd 387a e43d 6c4b 38bd
0.11525781 0.13928488 -0.17371479 0.083677225 -0.254101 -0.009495044 -0.0003962739 -0.028732045
-0.06894439 -0.19484809 -0.023579113 -0.037696544 -0.079204224 0.058655113 -0.23906392 -0.15254718
0.03808838 -0.1744593 -0.122274265 0.060260817 -0.14806016 -0.05704482 0.20030677 -0.11945979
-0.108783156 0.06726748 0.098468624 -0.044191316 -0.19072488 0.09398073 0.0055204593 -0.054514736
0.12989517 0.1913288 -0.2205332 -0.041805383 -0.16260178 -0.028407574 -0.1535967 -0.04841665
0.20080921 -0.21805969 -0.2269118 -0.081219345 0.13248563 0.06359807 0.07286203 0.0065322816
-0.121896945 -0.1091816 -0.007403491 0.13538863 -0.1913019 -0.11135325 0.18374066 -0.08627855
-0.061882008 -0.071430355 0.18884113 -0.1559858 -0.067517534 0.16999656 0.122992605 -0.17689201
0.19503397 -0.035625294 0.11156124 -0.044993803

fc1_2.bias f4 [4]
00000000: 965a 223e 3485 a3bc becb 493e cfd8 50bd
0.15854868 -0.019960977 0.19706628 -0.050988015
